…
        "model.add(Dense(128,activation='relu'))          \n",
        "model.add(Dense(num_classes,activation='softmax'))\n",
        "model.summary()"
      ],
      "execution_count": 10,
      "outputs": [
        {
          "output_type": "stream",
          "text": [
            "Model: \"sequential\"\n",
            "_________________________________________________________________\n",
            "Layer (type)                 Output Shape              Param #   \n",
            "=================================================================\n",
            "conv2d (Conv2D)              (None, 252, 252, 32)      2432      \n",
            "_________________________________________________________________\n",
            "max_pooling2d (MaxPooling2D) (None, 84, 84, 32)        0         \n",
            "_________________________________________________________________\n",
            "conv2d_1 (Conv2D)            (None, 82, 82, 32)        9248      \n",
            "_________________________________________________________________\n",
            "max_pooling2d_1 (MaxPooling2 (None, 41, 41, 32)        0         \n",
            "_________________________________________________________________\n",
            "conv2d_2 (Conv2D)            (None, 39, 39, 64)        18496     \n",
            "_________________________________________________________________\n",
            "max_pooling2d_2 (MaxPooling2 (None, 19, 19, 64)        0         \n",
            "_________________________________________________________________\n",
            "flatten (Flatten)            (None, 23104)             0         \n",
            "_________________________________________________________________\n",
            "dense (Dense)                (None, 512)               11829760  \n",
            "_________________________________________________________________\n",
            "dropout (Dropout)            (None, 512)               0         \n",
            "_________________________________________________________________\n",
            "dense_1 (Dense)              (None, 128)               65664     \n",
            "_________________________________________________________________\n",
            "dense_2 (Dense)              (None, 10)                1290      \n",
            "=================================================================\n",
            "Total params: 11,926,890\n",
            "Trainable params: 11,926,890\n",
            "Non-trainable params: 0\n",
            "_________________________________________________________________\n"
          ],
          "name": "stdout"
        }
      ]
    },
    {
      "cell_type": "code",
…
